model/sine-model-quantized.tflite (tflite, 2776 bytes, 3 tensors)

sequential_6/dense_17/MatMul i1 [16, 1] scale=0.004468901 zero_point=0
0	0x4b	0.3351676
1	0x0d	0.058095716
2	0xab	-0.3798566
3	0x79	0.54073703
4	0xb4	-0.33963647
5	0x70	0.5005169
6	0x26	0.16981824
7	0x81	-0.5675504
8	0x67	0.4602968
9	0x73	0.51392365
10	0x84	-0.5541437
11	0x19	0.11172253
12	0x9e	-0.4379523
13	0xf3	-0.058095716
14	0x81	-0.5675504
15	0x34	0.23238286

sequential_6/dense_18/MatMul i1 [16, 16] scale=0.010373437 zero_point=0
0	0xf3	-0.13485467
1	0x99	-1.068464
2	0x28	0.41493747
3	0x03	0.031120311
4	0xf5	-0.1141078
5	0xdb	-0.38381717
6	0x07	0.07261406
7	0xd9	-0.40456402
8	0xfd	-0.031120311
9	0xd7	-0.4253109
10	0xf3	-0.13485467
11	0xdc	-0.37344372
12	0xf2	-0.14522812
13	0x16	0.2282156
14	0x02	0.020746874
15	0xc8	-0.5809125
16	0x2b	0.4460578
17	0x0c	0.124481246
18	0xf4	-0.124481246
19	0x16	0.2282156
20	0xd7	-0.4253109
21	0x0b	0.1141078
22	0x3d	0.63277966
23	0xd9	-0.40456402
24	0x06	0.062240623
25	0xff	-0.010373437
26	0x13	0.1970953
27	0x7a	1.2655593
28	0xe9	-0.23858905
29	0xf7	-0.09336093
30	0xe8	-0.24896249
31	0x13	0.1970953
32	0xe4	-0.29045624
33	0x20	0.33194998
34	0xee	-0.18672186
35	0x1e	0.3112031
36	0x21	0.34232342
37	0xf5	-0.1141078
38	0xa4	-0.9543562
39	0x17	0.23858905
40	0xbe	-0.68464684
41	0x07	0.07261406
42	0xf3	-0.13485467
43	0xf4	-0.124481246
44	0xf9	-0.07261406
45	0xfb	-0.051867183
46	0x10	0.16597499
47	0x11	0.17634843
48	0x0b	0.1141078
49	0xe4	-0.29045624
50	0xf3	-0.13485467
51	0x01	0.010373437
52	0x1a	0.26970935
53	0xd2	-0.4771781
54	0xc9	-0.570539
55	0x25	0.38381717
56	0xdb	-0.38381717
57	0x2d	0.46680465
58	0x0a	0.10373437
59	0xfa	-0.062240623
60	0x19	0.25933594
61	0x0e	0.14522812
62	0xe1	-0.32157654
63	0xf2	-0.14522812
64	0xf9	-0.07261406
65	0xfc	-0.041493747
66	0x05	0.051867183
67	0x05	0.051867183
68	0xea	-0.2282156
69	0x06	0.062240623
70	0xe3	-0.30082968
71	0x0f	0.15560155
72	0xc9	-0.570539
73	0x14	0.20746873
74	0x22	0.35269687
75	0xa6	-0.9336093
76	0x0a	0.10373437
77	0x27	0.40456402
78	0xdd	-0.36307028
79	0x15	0.21784218
80	0xe6	-0.26970935
81	0xfa	-0.062240623
82	0xe5	-0.2800828
83	0xe5	-0.2800828
84	0xeb	-0.21784218
85	0xe7	-0.25933594
86	0x0a	0.10373437
87	0xd7	-0.4253109
88	0xd8	-0.41493747
89	0x1e	0.3112031
90	0x29	0.4253109
91	0xdb	-0.38381717
92	0xea	-0.2282156
93	0x01	0.010373437
94	0xe7	-0.25933594
95	0xe9	-0.23858905
96	0x06	0.062240623
97	0xde	-0.35269687
98	0x27	0.40456402
99	0xf0	-0.16597499
100	0xe9	-0.23858905
101	0xff	-0.010373437
102	0xf4	-0.124481246
103	0xe7	-0.25933594
104	0xe5	-0.2800828
105	0xf6	-0.10373437
106	0x21	0.34232342
107	0xde	-0.35269687
108	0x09	0.09336093
109	0x0f	0.15560155
110	0x11	0.17634843
111	0x23	0.36307028
112	0x06	0.062240623
113	0xe0	-0.33194998
114	0x04	0.041493747
115	0x1b	0.2800828
116	0x0d	0.13485467
117	0xbe	-0.68464684
118	0xfc	-0.041493747
119	0x01	0.010373437
120	0xe1	-0.32157654
121	0xda	-0.3941906
122	0x26	0.3941906
123	0xf8	-0.082987495
124	0xdc	-0.37344372
125	0xfe	-0.020746874
126	0xf1	-0.15560155
127	0x16	0.2282156
128	0xda	-0.3941906
129	0x0a	0.10373437
130	0x09	0.09336093
131	0x29	0.4253109
132	0xf7	-0.09336093
133	0xe7	-0.25933594
134	0xa2	-0.9751031
135	0x29	0.4253109
136	0xc0	-0.66389996
137	0x11	0.17634843
138	0x1b	0.2800828
139	0xdf	-0.34232342
140	0x0b	0.1141078
141	0x24	0.37344372
142	0x1f	0.32157654
143	0x06	0.062240623
144	0xcb	-0.5497922
145	0x0f	0.15560155
146	0xd8	-0.41493747
147	0x24	0.37344372
148	0x10	0.16597499
149	0x20	0.33194998
150	0x00	0.0
151	0x0b	0.1141078
152	0xe4	-0.29045624
153	0x2b	0.4460578
154	0x28	0.41493747
155	0x81	-1.3174264
156	0xdd	-0.36307028
157	0xfb	-0.051867183
158	0x22	0.35269687
159	0x09	0.09336093
160	0x12	0.18672186
161	0xe1	-0.32157654
162	0xe3	-0.30082968
163	0x08	0.082987495
164	0xe5	-0.2800828
165	0xf0	-0.16597499
166	0x10	0.16597499
167	0xd8	-0.41493747
168	0xde	-0.35269687
169	0xe0	-0.33194998
170	0xfa	-0.062240623
171	0xfb	-0.051867183
172	0x07	0.07261406
173	0x15	0.21784218
174	0xe7	-0.25933594
175	0xe4	-0.29045624
176	0x1f	0.32157654
177	0xf6	-0.10373437
178	0x14	0.20746873
179	0xef	-0.17634843
180	0x09	0.09336093
181	0x1f	0.32157654
182	0x27	0.40456402
183	0xe8	-0.24896249
184	0x00	0.0
185	0x0a	0.10373437
186	0x11	0.17634843
187	0x7e	1.3070531
188	0x27	0.40456402
189	0xe7	-0.25933594
190	0x1c	0.29045624
191	0x1e	0.3112031
192	0xe3	-0.30082968
193	0xe9	-0.23858905
194	0xdf	-0.34232342
195	0xe5	-0.2800828
196	0xe1	-0.32157654
197	0xda	-0.3941906
198	0x16	0.2282156
199	0x14	0.20746873
200	0xe0	-0.33194998
201	0xef	-0.17634843
202	0x29	0.4253109
203	0x1d	0.30082968
204	0xdc	-0.37344372
205	0x12	0.18672186
206	0x06	0.062240623
207	0xed	-0.1970953
208	0xff	-0.010373437
209	0xf4	-0.124481246
210	0x27	0.40456402
211	0x12	0.18672186
212	0x28	0.41493747
213	0xfb	-0.051867183
214	0xf0	-0.16597499
215	0x02	0.020746874
216	0xd6	-0.43568435
217	0x2b	0.4460578
218	0xf9	-0.07261406
219	0xa6	-0.9336093
220	0xe5	-0.2800828
221	0x28	0.41493747
222	0xd9	-0.40456402
223	0xed	-0.1970953
224	0x02	0.020746874
225	0xe1	-0.32157654
226	0xf9	-0.07261406
227	0xf6	-0.10373437
228	0xed	-0.1970953
229	0xf9	-0.07261406
230	0xdf	-0.34232342
231	0x17	0.23858905
232	0xfe	-0.020746874
233	0x15	0.21784218
234	0x15	0.21784218
235	0x89	-1.234439
236	0xf9	-0.07261406
237	0x09	0.09336093
238	0x1b	0.2800828
239	0x1c	0.29045624
240	0x22	0.35269687
241	0x01	0.010373437
242	0x10	0.16597499
243	0xf5	-0.1141078
244	0x21	0.34232342
245	0x19	0.25933594
246	0x02	0.020746874
247	0xe3	-0.30082968
248	0x2f	0.48755154
249	0x1c	0.29045624
250	0x17	0.23858905
251	0x49	0.7572609
252	0x08	0.082987495
253	0xe9	-0.23858905
254	0xff	-0.010373437
255	0x1e	0.3112031

sequential_6/dense_19/MatMul i1 [1, 16] scale=0.010229582 zero_point=0
0	0x89	-1.2173202
1	0x21	0.3375762
2	0x72	1.1661724
3	0x6b	1.0945653
4	0xed	-0.19436206
5	0x00	0.0
6	0xff	-0.010229582
7	0xb4	-0.77744824
8	0x7f	1.2991569
9	0xc8	-0.5728566
10	0x34	0.53193825
11	0x41	0.66492283
12	0xfe	-0.020459164
13	0xde	-0.3478058
14	0xe2	-0.30688745
15	0x2d	0.4603312
