model/sine-model.tflite (tflite, 2960 bytes, 5 tensors)

dense_18/bias f4 [16]
00000000: f8c6 933e fcb6 e5be cf69 4c3e 8f64 743e
00000010: 91cb fe3d ce71 afbb 0000 0000 53b1 2c3e
00000020: 50f4 5e3e 3131 963e 4926 cfbb a9d0 02bf
00000030: 0000 0000 bac9 243e 5cab 5a3e 64f1 c3be
0.2886274 -0.44866168 0.19962238 0.23866485 0.12441171 -0.0053541427 0.0 0.16864519
0.21772885 0.29334405 -0.0063217026 -0.5109964 0.0 0.16092578 0.21354431 -0.38270104

dense_17/bias f4 [16]
00000000: 861b 86bf b402 d1ba 0000 0000 add2 003f
00000010: 0000 0000 eb38 15bf c016 d2be 0000 0000
00000020: 3fe0 5abf 906c 983e 0000 0000 deff 19bf
00000030: 0000 0000 0000 0000 0000 0000 2dc4 47be
-1.047715 -0.001594624 0.0 0.50321466 0.0 -0.58289975 -0.41032982 0.0
-0.8549842 0.29770327 0.0 -0.6015605 0.0 0.0 0.0 -0.19508429

sequential_6/dense_17/MatMul f4 [16, 1]
00000000: 960b ab3e 0fc0 653d ee2e c3be 3330 0a3f
00000010: 18b7 adbe 393d 003f 33ee 2f3e fc4a 11bf
00000020: 26b1 eb3e 0312 043f 3865 0ebf c1e6 e33d
00000030: 8c59 e0be 301b 6abd cb0d 11bf 9e97 6d3e
0.33407277 0.056091364 -0.38121742 0.53979796 -0.33928752 0.5009342 0.1718071 -0.5675504
0.4603359 0.51589984 -0.556232 0.11127997 -0.4381832 -0.057154834 -0.5666167 0.23202369

sequential_6/dense_18/MatMul f4 [16, 16]
00000000: db09 09be 469e 88bf d57b d53e 5f27 143d
00000010: d469 e2bd 0aff c3be 1071 933d e18b cdbe
00000020: 5db2 0dbd efd4 d7be 1459 0ebe f84a bfbe
00000030: ea29 13be f2ce 6e3e 70f5 b43c d7c9 13bf
00000040: bb35 e23e 5c70 fb3d 28a6 f5bd 557a 6c3e
00000050: 9103 dbbe 937e f33d 60ff 213f 01a9 cebe
00000060: e20b 813d acb6 04bc a2e0 4c3e 468e a23f
00000070: 5f08 70be c46c c6bd 60fd 81be 129f 443e
00000080: 28fc 96be 3c5b aa3e 1c0d 42be 6d09 9d3e
00000090: 2fa2 af3e 1c05 f1bd 0578 74bf c66c 773e
000000a0: e3d3 2ebf be29 9c3d aa5b 0fbe 6af6 00be
000000b0: c875 8bbd 907d 55bd c2d2 243e 374d 323e
000000c0: 6556 e53d 990e 94be c613 07be bd9b 3e3c
000000d0: e96a 8b3e 2834 f4be 8ffd 11bf 5700 c33e
000000e0: 0298 c2be 2277 ef3e d4fd d13d 4306 7bbd
000000f0: 4709 833e 52a8 153e fad6 a3be 336b 11be
00000100: 33eb 91bd c87c 1dbd d0f1 4f3d 3334 433d
00000110: d1e7 65be 3d8e 833d 69b6 97be f260 1b3e
00000120: df51 11bf 4b63 513e 5f46 b63e 74b4 6dbf
00000130: ace1 da3d 3d8e cc3e 75de babe 6f9c 5e3e
00000140: 3282 88be ecd1 83bd 2158 8ebe 29a3 91be
00000150: a11e 5bbe df53 82be 8f2e d93d 2160 d7be
00000160: 1c0a d2be 3829 9d3e 453b d73e 986e c5be
00000170: 8abf 66be 801d 673c d5d3 83be 21d2 73be
00000180: fcbe 803d 1414 b5be 392e cf3e d4c7 2abe
00000190: cf12 71be 40a0 ccbb 04a0 fcbd 2c4a 85be
000001a0: 9559 8fbe dcb5 d8bd 731f b03e 2fa7 b3be
000001b0: a434 c83d aed9 1c3e aeb8 373e 89d5 b93e
000001c0: 1015 7d3d a01c a8be d8b5 263d 07e2 903e
000001d0: fed0 0b3e cb11 2ebf f02f 32bd c01b 5a3c
000001e0: 8a9f a5be 1cc2 c9be b57c ca3e d117 a6bd
000001f0: 3912 bfbe 90ad c7bc 6c3c 24be c843 663e
00000200: 2f99 c8be 4509 cf3d 8c22 b93d 8974 da3e
00000210: 189b b7bd 456a 86be dfdf 78bf 19a1 d83e
00000220: ed54 29bf b54a 313e 7d9c 8d3e 6c7b adbe
00000230: bc6e e03d f118 be3e a7b1 a23e 24c9 6f3d
00000240: d977 0bbf 5d38 233e 4331 d6be f2bb c13e
00000250: b67d 2c3e ffd8 a83e 88a2 8d3b 04f9 ec3d
00000260: 9b1c 93be fa6a e23e 9fb9 d33e 6ea1 a8bf
00000270: 5a38 b9be 687b 56bd 9f22 b73e 5a78 c33d
00000280: 2e46 433e 7b15 a4be 2d77 9cbe 9889 b23d
00000290: e4e1 90be 103b 28be a67f 2e3e e32c d2be
000002a0: c87e b6be 1554 aabe bc16 88bd 48ed 44bd
000002b0: 14a3 983d da41 643e b48c 82be 1a8d 95be
000002c0: f679 a43e 24e9 c9bd baa8 593e 65ac 37be
000002d0: 9c25 c43d 269b a53e aa25 cf3e d729 7bbe
000002e0: 3aed 703b 5adb d43d 42da 383e d3d2 a63f
000002f0: bdf2 ce3e 5e34 84be 416b 963e 7878 9d3e
00000300: 249a 9cbe 1fb6 73be c377 afbe 5e70 8fbe
00000310: 01f9 a2be b8da c9be ee28 693e 321a 503e
00000320: 24e0 abbe daf2 38be 77d1 d93e fd94 9a3e
00000330: 9992 bfbe e276 3b3e 44f5 803d 81cf 49be
00000340: fd44 22bc faf9 f9bd 1542 d13e e4d3 423e
00000350: 4b95 d43e 5021 49bd 5f0f 2fbe 6059 c23c
00000360: cdc9 ddbe f7df e23e 7c29 8cbd 533f 6fbf
00000370: 876f 91be 511c d33e 6532 d0be 1bd5 45be
00000380: 03af a93c 793a a5be 0cde 9abd d8cb d2bd
00000390: b245 49be 4dc8 98bd aeb2 b0be 8a8c 723e
000003a0: 68a0 85bc 7df5 5e3e f603 5f3e df14 9ebf
000003b0: 3042 93bd f4ad c93d b388 8f3e 53a9 923e
000003c0: 62b7 b33e 8400 d73b 2aa6 263e 56d3 e9bd
000003d0: 2da0 ae3e 8a8d 863e f844 b03c ae60 9bbe
000003e0: e3f1 f73e 20b9 933e 02b9 703e e672 413f
000003f0: 2cce a83d 018c 77be 20d0 30bc 2ece 9c3e
-0.13382666 -1.0673301 0.4169604 0.03617036 -0.11055341 -0.38280517 0.07199299 -0.40145782
-0.03459393 -0.42154643 -0.13901168 -0.37361884 -0.14371458 0.23321131 0.02208969 -0.5772986
0.44181618 0.1227729 -0.119945824 0.23093541 -0.42776158 0.118893765 0.63280296 -0.40363315
0.063010946 -0.008100193 0.20007566 1.2699668 -0.23440693 -0.09688714 -0.25388622 0.19201306
-0.29489255 0.3327273 -0.18950313 0.30671254 0.34303424 -0.11768553 -0.95495635 0.24162588
-0.68292063 0.07625149 -0.13999811 -0.12594 -0.06809574 -0.0521217 0.16096023 0.17412268
0.11198119 -0.28917387 -0.13191137 0.011633811 0.27230003 -0.47696042 -0.57027525 0.38086197
-0.38006598 0.4677058 0.10253492 -0.06128527 0.25593016 0.1461499 -0.31999952 -0.1420105
-0.07124939 -0.03844908 0.05076772 0.047657203 -0.22451712 0.06423614 -0.29631355 0.151737
-0.5676555 0.20448034 0.35600564 -0.92853475 0.10687575 0.3995227 -0.36497846 0.21739362
-0.2666183 -0.06436524 -0.27801612 -0.28444794 -0.21398403 -0.25454614 0.106045835 -0.42065528
-0.41023338 0.3069551 0.42037407 -0.3856094 -0.22534004 0.014106154 -0.25747553 -0.23810627
0.062864274 -0.3536688 0.40464953 -0.16677791 -0.23542331 -0.006244689 -0.12335208 -0.2603315
-0.27998033 -0.10581562 0.34398994 -0.35088488 0.097756654 0.15317413 0.17941543 0.36295727
0.061787665 -0.3283434 0.040700763 0.28297445 0.13653943 -0.679959 -0.043502748 0.01331228
-0.3234828 -0.39405906 0.3954827 -0.08110011 -0.3731859 -0.024374753 -0.16038674 0.22486794
-0.3917937 0.1010919 0.090397924 0.42667034 -0.08965129 -0.26252952 -0.972166 0.42310408
-0.6614521 0.17313655 0.27658454 -0.33883226 0.10958621 0.37128404 0.31776163 0.058541432
-0.5447975 0.1593947 -0.4183446 0.37838703 0.1684483 0.32978055 0.0043223538 0.115709335
-0.28732762 0.44222242 0.41352555 -1.3174264 -0.36175805 -0.052363783 0.357686 0.095444396
0.1906974 -0.32047638 -0.30559674 0.0871765 -0.2829734 -0.1642878 0.17040882 -0.4104987
-0.356436 -0.33267274 -0.06644961 -0.04807785 0.0745298 0.22290745 -0.25497973 -0.29209214
0.321243 -0.09858921 0.2125577 -0.17936857 0.09577486 0.3234493 0.40458423 -0.2452768
0.0036762492 0.103934005 0.18052009 1.3033088 0.4041957 -0.25821203 0.29378703 0.30755973
-0.3058635 -0.23799942 -0.34271058 -0.28015417 -0.318306 -0.39424682 0.2276952 0.20322493
-0.33569443 -0.1806139 0.42542621 0.30191794 -0.37416533 0.18307069 0.06296781 -0.19708063
-0.009904143 -0.12205882 0.4087073 0.19026142 0.41520151 -0.049104035 -0.17095707 0.023724258
-0.43318024 0.44311497 -0.0684385 -0.93456 -0.284054 0.4123254 -0.40663448 -0.19319575
0.020713335 -0.32271174 -0.07561883 -0.10292786 -0.19655493 -0.07460079 -0.34511322 0.23686424
-0.01631184 0.21773334 0.21778855 -1.2350119 -0.07190359 0.09847632 0.2803398 0.2864481
0.35100847 0.0065613408 0.16274324 -0.11417262 0.3410658 0.2627986 0.021517262 -0.30347198
0.48426732 0.28852177 0.23508075 0.75565946 0.08242449 -0.24174501 -0.010791808 0.30626053

sequential_6/dense_19/MatMul f4 [1, 16]
00000000: 25c1 9bbf d555 ae3e 1deb 953f 80cb 8b3f
00000010: 38ae 44be b495 67ba 0014 b2bb 4c89 46bf
00000020: c64a a63f 4f83 11bf 4c59 073f 3180 293f
00000030: c0ec c8bc 690a b2be 9c13 9dbe 243a ea3e
-1.2168318 0.3404986 1.1712376 1.0921478 -0.19207084 -0.0008834258 -0.005434513 -0.7755325
1.2991569 -0.56840986 0.5287063 0.6621123 -0.024526954 -0.34773567 -0.30679023 0.45747483
